CGEM/model.bin (torch, 111585 bytes, 52 tensors)

weight f4 [32, 32]
00000000: 1a54 803d d8d8 20be 4991 2cbd b2e2 683d
00000010: c96e babd ca56 2fbe ebe0 3bbe 6ca6 4cbe
00000020: 7272 0f3d 338b b4bd a072 adbd de49 a53c
00000030: f503 69be 71f0 dabc e886 e23c 900e 993b
00000040: 8025 54be b9b7 27be c100 b3bd 894c 6fbe
00000050: 56f6 853d cf8d 3fbe 10bf 67be f42a 6cbc
00000060: 2482 1d3c 477d 46be 732f 8ebd dcb6 f73c
00000070: a974 bdbd a628 4ebd 0282 c8bd 630f 2d3d
00000080: 6b0b 06be d9c3 31be 6d7e 42be 2ae6 1dbe
00000090: 79ac 30be 58a5 38be c66e d1bd 86bd 2bbe
000000a0: 81c8 43bd 7766 12be 5023 523d f446 3dbe
000000b0: 0e5b 38be ca29 adbb fb4a 83be d06e 26be
000000c0: 3c08 08be 9712 82be 0f9b 2dbd 2ccf 7bbe
000000d0: e1a0 db3c e29e cd3c 1d96 0d3d 2989 77bc
000000e0: 68be 48be 8a62 86be c5ea 083c 9a7a afbd
000000f0: 155d 5c3d d64d 18bd 5037 78be ab3d 97bd
00000100: 6afd 913d d938 8dbd be52 61be ff47 4bbe
00000110: 17dc 43be a60e 40be 9c10 313c e2eb efbd
00000120: cead 2c3d 6012 5d3d 64d0 4bbe df81 c33c
00000130: 6936 b8bd f885 30be 8e14 14be fc55 5cbe
00000140: 81a5 ea3d 9f2e 37be 5529 34bc 3f8f 39be
00000150: fd89 31be 876f febd e672 a1bd f69c 9ebd
00000160: 93d2 69be d562 d93c e3cd 97bd 02ba 1fbe
00000170: 7ee6 be3d e16a dc3d 8cf8 00bb f3d3 b3bd
00000180: 1dcb 8c3e dfc7 dc3d d046 273d be89 5e3e
00000190: 470c cc3d 59b8 453d d94b 823e 9415 3f3d
000001a0: 7a94 633e 1a05 1a3e 43af 1d3e cb17 51bd
000001b0: c7d2 c23c a58b 943e bdf8 923e ab08 4fbc
000001c0: d3c8 e83b 83ca 973e 8844 a93d bdfa 423e
000001d0: 39c8 603e 78f0 643d 9020 163e 3283 853d
000001e0: c55b c73d 28f7 143e 30cb 2c3e 573e 393e
000001f0: 2616 3a3e efa7 6d3e 92db 073e 6ec3 243e
00000200: 6a15 7bbe 95a4 3cbd 0284 993c 52ce 5bbe
00000210: 94f7 cd3c aa31 8cbe ac1b 91bd 1985 36be
00000220: 683f 31be 7945 1cbe b4ba 52be 89f7 423d
00000230: d6df 6abe 9982 55bd 70b2 0bbb 576a b5bb
00000240: b193 193d 56cf 9fbd 71b7 87be 087a a0bd
00000250: dda2 dbbd d761 8fbd 54ef 0abe 71a5 46be
00000260: 8c2a 93bd ca28 04bd 00a8 a7bc 0da3 42be
00000270: e4e8 8d3c d68e 5f3d 34b4 5c3c 0865 24be
00000280: a873 163d a088 6d3e 13be cabd 1b2f 403e
00000290: 25c1 07bd 82e2 d53d b024 283e f2f0 0d3e
000002a0: 2630 5c3e 944b 993d d7c1 733d 996a 87bd
000002b0: e03f 1b3e efae d63d 58ec 3e3c cc67 413c
000002c0: 5e58 ab3d 54de 573e e3ac 123e 5a0f 163d
000002d0: c445 5d3e 58c0 0e3e 9735 443e 700d 613e
000002e0: 5696 123e 4956 513e 0ff5 3e3e 7669 98bc
000002f0: 2176 b4bd 43fe 483e 083f 5b3e f887 703e
00000300: 8a4a 2c3d 8385 8abd 4e51 babd 3866 113e
00000310: e0c7 203e a57f 0a3e 51e4 063d e73c 613e
00000320: edfc ea3c ee47 403e 0742 723d 827e 9a3c
00000330: bd1d a0bd 42cc 553e 9cba 313e bb3f 37bc
00000340: 8d0b e5bd c95a 133e 32d5 b73d f048 943a
00000350: cda1 9f3c b038 4ebd 5ab6 74bd 32d1 0ebd
00000360: cdcf 60bd 0cd3 263e 494e a43d 2e68 23bd
00000370: be65 b93d 0ca6 ed3d cbf1 d8bc 8ef6 423e
00000380: 638c 633e f68c 9fbd 2f53 523e 96c9 273e
00000390: 50d5 c53d 6e76 c03d d4d3 1c3e 6b70 88bd
000003a0: c881 5b3c 461b 863e 0282 963d 75a5 8a3e
000003b0: cc8d c03b 8eee 703d f342 de3d ea2d 503e
000003c0: 97a3 d83d 43c3 05bd d043 db3c 72df 353e
000003d0: b943 8e3d 781d 543e 19e1 1e3d 9aeb 063e
000003e0: 616a 4f3e aad6 433e a0cf 333e 030c 803e
000003f0: ed42 e93d 63b1 1f3e 5e78 433e 6784 a3bd
0.06266041 -0.1570772 -0.042130742 0.05685682 -0.09103162 -0.17122951 -0.18347518 -0.1998536
0.035021253 -0.08815613 -0.084691286 0.020176824 -0.22755416 -0.02672598 0.027652219 0.0046709254
-0.2071743 -0.16378678 -0.08740378 -0.2336904 0.065411255 -0.1870644 -0.22631478 -0.014414538
0.0096135475 -0.19383727 -0.06942644 0.030238561 -0.09250767 -0.050331734 -0.09790422 0.042251002
-0.13090293 -0.17359866 -0.1899354 -0.15419832 -0.17253293 -0.18031824 -0.102262065 -0.16771516
-0.047798637 -0.142969 0.051303208 -0.18484098 -0.18003485 -0.0052845227 -0.25643143 -0.16253209
-0.13284391 -0.25404808 -0.042384204 -0.24590749 0.026810111 0.025100175 0.034566987 -0.015108385
-0.19603884 -0.26247054 0.008356755 -0.08568306 0.053799707 -0.037183605 -0.2423985 -0.07384809
0.07128413 -0.068956085 -0.2200422 -0.19851683 -0.19126926 -0.18755588 0.010807183 -0.11714913
0.04215794 0.053972602 -0.19903713 0.023865638 -0.08994753 -0.17238605 -0.14460966 -0.21517175
0.114573486 -0.17888878 -0.010996182 -0.1812105 -0.17337795 -0.12423616 -0.07883243 -0.07744782
-0.22834234 0.026536385 -0.07412317 -0.155983 0.09321307 0.10762573 -0.0019679395 -0.087806605
0.27498713 0.1078031 0.040839016 0.21732232 0.09963279 0.04827151 0.25448492 0.046651438
0.22224608 0.15041009 0.15398888 -0.05104808 0.023782147 0.2901279 0.28705397 -0.012636344
0.0071040182 0.29646692 0.082650244 0.19040962 0.21951379 0.05589339 0.14660859 0.06519164
0.097343005 0.14547408 0.16874385 0.18090187 0.18172511 0.23208593 0.13267353 0.16090176
-0.24519888 -0.046055395 0.018739704 -0.21465424 0.025142469 -0.2738164 -0.07085356 -0.1782421
-0.17309344 -0.15260877 -0.20579034 0.04759935 -0.22936949 -0.0521265 -0.0021316074 -0.0055363583
0.037494365 -0.07803218 -0.26507142 -0.078357756 -0.10724423 -0.07001083 -0.13567859 -0.19399048
-0.071858495 -0.032265462 -0.02046585 -0.19007511 0.017322965 0.05457958 0.013470698 -0.16054165
0.036731392 0.2319665 -0.09899535 0.1876797 -0.03314318 0.104435936 0.16420245 0.13861445
0.21502742 0.074851185 0.059511032 -0.06612129 0.15161085 0.10482585 0.011653028 0.011804532
0.08366464 0.21080905 0.14323764 0.036635734 0.21608645 0.13940561 0.19161068 0.21977782
0.14315161 0.20443071 0.1864817 -0.018604975 -0.08811594 0.19628243 0.21410763 0.23489368
0.042063273 -0.067637466 -0.09097539 0.1419915 0.15701246 0.13525255 0.032932583 0.21995889
0.028685058 0.18777439 0.059145 0.018859152 -0.07818172 0.208787 0.17356342 -0.011184628
-0.11183844 0.143901 0.08976211 0.0011313241 0.019486332 -0.05034703 -0.059744217 -0.034867473
-0.054885674 0.16291445 0.08022744 -0.039894275 0.09052609 0.116039366 -0.026482483 0.19039366
0.22221522 -0.07790558 0.20539545 0.16385493 0.09659827 0.09397589 0.15315181 -0.06662067
0.0133976415 0.26192683 0.07349016 0.2707936 0.0058762785 0.058821253 0.10852613 0.20330015
0.10578077 -0.03265692 0.026765734 0.17761019 0.06946511 0.20714366 0.03878889 0.13175812
0.20255424 0.19124857 0.17559671 0.25009164 0.11389718 0.15595011 0.19088885 -0.07984238

bias f4 [32]
00000000: 9377 db3d 7d38 34be f2b9 ca3d 0cac 373e
00000010: 6892 69be f8c7 6abd 9660 263e ba7c 4dbd
00000020: 6a18 94bc c57d 20be ff18 d2bd 46ae b03d
00000030: 94c8 f9bd 3c80 2dbe 407a 333e 4d23 753e
00000040: 7e85 80bd 07bf 9e3d de9b 83bc 68ee 5ebe
00000050: 46ca 0a3d 9f5d 0fbe c460 0cbe f08d 85bc
00000060: 482c 5cbe 7311 7c3d 59e7 9bbd 8af0 9ebc
00000070: 6800 69bd 5f37 083d 6087 7c3b 0786 97bc
0.10716166 -0.17599674 0.098987475 0.17936724 -0.22809756 -0.05731961 0.16247782 -0.050167777
-0.018078048 -0.15672977 -0.10258674 0.0862699 -0.1219646 -0.16943449 0.17527103 0.23939247
-0.062754616 0.07751279 -0.016065534 -0.21770632 0.03388431 -0.14000557 -0.13708788 -0.016303033
-0.21501267 0.06154008 -0.076124854 -0.019401807 -0.056885153 0.03325593 0.0038532838 -0.018496526

weight f4 [32, 32]
00000000: db29 c73b 62e8 933d 78fe 16be 58f7 0bbd
00000010: a2e8 5fbd f2df 473d 43c0 5fbd dd2c 983d
00000020: bbcb f8bd e93a db3c 1677 0c3d 4201 9e3d
00000030: 5614 f0bd 65f4 193d 5302 b93c 9dcb dd3e
00000040: af58 62be f302 51be c62b 3fbe 5d8a 2ebe
00000050: f3a3 86bc c38e aabb f075 ccbd f34c 4cbd
00000060: 5e6a 86bd 4616 a43d 9b05 0f3e 676d 6d3d
00000070: 766e 22be d319 8f3a 3890 97bd c7b3 34be
00000080: eb2c f33c 8783 abbd cb7b 853e 0efb 6abe
00000090: 2f85 4b3e 3844 01bd 9c1a 24be 4817 5d3d
000000a0: a6b4 82bc da59 cc3d 8f50 143d 2ffa f43d
000000b0: 08d2 e7bd ec4b 8d3d 831f 2abe 25a3 d0be
000000c0: 1234 52bd 0046 03be 2b2b 3dbe 5c85 603e
000000d0: 234f 6b3e 222e e13d 9d1e 6a3e 5aa0 153e
000000e0: 84c6 973e 26b6 393e 012a 033e 6f46 db3b
000000f0: e86c 973d a8ed 2b3d 1ab0 993d 4a70 4cbe
00000100: aca6 053e a0f3 17bd 9b8e 59be 03b7 963e
00000110: cdc3 8d3d ca30 a33e cdd3 6d3c 3ac3 3f3e
00000120: 619e 0d3b 51f6 143d 558a 73bc 131b b7bd
00000130: fee2 83be af8f 3d3d eb94 2cbe eba8 af3e
00000140: d781 4f3e 7866 ebbd 93dd 39bc 42dd 333d
00000150: b9fd be3d 6990 dbbd ab39 00be 2980 6ebb
00000160: ca45 833c b39c e83d 39de 0c3e 03c4 9ebd
00000170: b70d 34be eec7 33bd 53aa 13be 353d 9b3c
00000180: e04a 1fbe 6c1a 9e3d 5bbf bdbe 9c53 473e
00000190: 8275 a13d aaf3 f33d 275d 4ebe c931 16bd
000001a0: b81a da3d 8190 53be e11b 4e3e 196e d5bd
000001b0: 93b5 11be 1f3c ef3d a111 813d 8f22 e23e
000001c0: 70f9 353e fc39 bd3d 66c7 93bc 59a5 8abe
000001d0: e441 91bc db3c 16be 1646 23be 43ae 43be
000001e0: f42a b1bd d9e9 20be 6a57 783a f6c0 7d3c
000001f0: ff6e 81bd 3f0b 0fbe d236 43bc 43ca d5bd
00000200: 48c4 cabd e645 e4bd 8d85 85be 4ef4 753e
00000210: 34fb f63c 52c7 063e 34e8 1a3e f2db f8bd
00000220: c6a5 493e 028c 5bbb 90c0 2f3d 4288 68bd
00000230: d7c1 c43c 5af0 a8bd c705 afbd 64dc db3d
00000240: 6d7a f13c 0977 8abc 8885 90bc c014 29bd
00000250: 93b0 4ebc fbaa 88be 2d32 133e 602e 833e
00000260: e0a3 d43c 068b ba3d 8d37 5abc 3c61 003e
00000270: 052f 40be 4185 20be 6185 5d3e 8012 c53e
00000280: 3ed2 b8bd 6ec9 7b3d 66a6 32be 37f1 0e3f
00000290: 2c18 0e3d 109c 2cbd 3cc3 2abd 38d3 943e
000002a0: b295 8d3e 05a3 0f3e 5ab0 5c3d e527 34bd
000002b0: 5fb4 b4bd 166b e53b 806e 873d 2ff4 eb3e
000002c0: 9844 5abe 7059 07be 66d7 c5b9 3385 1bbc
000002d0: 30ae 863c abf7 c7be 80fa ec3d 4805 bf3d
000002e0: 26a1 74be 15c2 b23d e75a c0bd 9608 83bc
000002f0: b633 233e 2d9b 98bd 6173 50bb e222 883e
00000300: 0ca3 c6bd cadf 70bb 96e0 41be 4300 133e
00000310: ab32 3cbe 8e64 9e3e 05e4 033d 7b01 a0bb
00000320: afcd fbbd 3974 1bbe 3c72 11be f355 0cbc
00000330: c5e3 82be 74a9 85bd 4594 973d d27e 053e
00000340: 3f46 993d dd08 df3c 36d4 a93a 834c 30be
00000350: 3b91 0c3e 1f61 49bd d401 54be 45a6 d33b
00000360: 41bf d13d a7ff 38bc 085f 62be c077 e2bd
00000370: c79e 87bd bf1c 80bd df56 df3d ffe3 8d3d
00000380: 940f d1bd b3af 4f3e 8f6a c0bb 17e1 59be
00000390: ff02 ffbd cf9a 4cbd 6652 51be 9128 febc
000003a0: 2cda c1bd 1cda b8bd 75c0 66bc 2096 ebbc
000003b0: 131c fc3a bd71 95bd a476 0bbe bedb a9be
000003c0: 99b8 e7bd a31e c3bd 6086 3ebd d4df edbb
000003d0: 2331 fd3b 3ac2 a3bd 9b8f b7bd d072 0bbd
000003e0: c864 a1bd 024c 1f3c 174a 2b3e 1855 e43d
000003f0: b649 4fbd 0a8e 32bd 45b3 fc3d 0931 6dbd
0.0060779876 0.07222058 -0.1474551 -0.034171432 -0.054665215 0.048797555 -0.054626714 0.07430432
-0.121482335 0.026761489 0.034293257 0.07715084 -0.11722629 0.03758659 0.022584116 0.43319407
-0.22104143 -0.20411281 -0.18669042 -0.17044969 -0.016435599 -0.005205007 -0.09983432 -0.049878072
-0.06563257 0.08012061 0.13966982 0.057965662 -0.1586245 0.001091773 -0.074005544 -0.17646705
0.029684504 -0.08374696 0.2607101 -0.22947332 0.19875024 -0.0315592 -0.16025776 0.05397728
-0.01595528 0.09978075 0.03620964 0.11961781 -0.11319357 0.068992466 -0.16613583 -0.4074947
-0.05131919 -0.12819672 -0.18473499 0.21925873 0.22979407 0.10995127 0.2286324 0.1461195
0.29643643 0.1813589 0.12808992 0.006691746 0.07393819 0.041974694 0.07504292 -0.1996471
0.13051862 -0.037097573 -0.21245806 0.29436502 0.06922112 0.3187316 0.014515829 0.18726817
0.0021609294 0.036367718 -0.014864524 -0.08940711 -0.2575912 0.046279605 -0.16853683 0.34308562
0.20264374 -0.11494154 -0.011344331 0.04391218 0.093257375 -0.107209034 -0.12521999 -0.0036392307
0.016024489 0.11358013 0.13756646 -0.0775223 -0.17583357 -0.04389184 -0.14420442 0.018950084
-0.15555906 0.07719883 -0.37060055 0.19465488 0.07883741 0.119117096 -0.20152722 -0.036668573
0.106496274 -0.20660593 0.20127822 -0.1042139 -0.14229421 0.11681389 0.063021906 0.4416699
0.17770934 0.09239575 -0.018039417 -0.27079275 -0.017731614 -0.14671652 -0.15944704 -0.19109444
-0.08650771 -0.15714206 0.0009473475 0.0154879 -0.06319999 -0.13969134 -0.011914926 -0.10438969
-0.09900719 -0.111461446 -0.26078454 0.24018976 0.03014908 0.13161972 0.15127641 -0.12151326
0.19692144 -0.00335002 0.04290825 -0.05677057 0.024018211 -0.082489684 -0.08546024 0.107353956
0.029477322 -0.016902464 -0.017641798 -0.041279554 -0.012615341 -0.26692948 0.1437461 0.2562132
0.025957048 0.09108548 -0.013318908 0.12537092 -0.18767937 -0.15675832 0.21632911 0.38490677
-0.090244755 0.061471395 -0.17446288 0.55836815 0.03469102 -0.04214102 -0.041690096 0.29067397
0.2765327 0.14027031 0.05387912 -0.04398336 -0.088234656 0.007001291 0.06612873 0.46084735
-0.21315229 -0.13217711 -0.00037735252 -0.009492206 0.016440481 -0.39056143 0.115712166 0.09327179
-0.23889598 0.087284245 -0.09392338 -0.015995305 0.15937695 -0.074514724 -0.0031807052 0.26589113
-0.096990675 -0.0036754482 -0.18933329 0.14355569 -0.18378703 0.30936092 0.03219988 -0.004882989
-0.122950904 -0.15181054 -0.14203733 -0.008565414 -0.255644 -0.06526461 0.07401327 0.1303666
0.074841015 0.027225906 0.001295692 -0.17216687 0.13727276 -0.049164888 -0.20703822 0.00645903
0.10241557 -0.011291421 -0.22106564 -0.11057997 -0.06622081 -0.06255483 0.10905241 0.069282524
-0.102080494 0.20281868 -0.005872078 -0.21277271 -0.12451743 -0.049952324 -0.20441589 -0.031025203
-0.09465441 -0.09025976 -0.014083971 -0.028758109 0.0019234441 -0.072970845 -0.13619477 -0.33175462
-0.11314506 -0.09527328 -0.04651487 -0.0072593484 0.007726805 -0.0799603 -0.089629374 -0.03404504
-0.078805506 0.0097227115 0.16727482 0.11149043 -0.050607406 -0.04359249 0.123388804 -0.05790809

bias f4 [32]
00000000: caf2 133e 9077 05bd 2610 f0bc 30d8 0a3e
00000010: 131f 3d3e c2f0 e43e 3663 d43b cab3 22be
00000020: dd20 843e 2e67 d73e c99b a03e 6d81 903e
00000030: dcfa ed3d 9223 773e 531b 5a3e 63fa 4f3d
00000040: 7b8b 793e 1f9b 46be 0499 18bd 22e7 983c
00000050: 3d65 3c3e 0521 dabc 1ac2 273e 2398 783e
00000060: 9566 923e 4568 7ebe 42e6 3c3a b5e1 073e
00000070: fc69 013e ec65 c9bc 78db 0b3e 2980 aebd
0.14448085 -0.032584727 -0.029304575 0.13559031 0.18468885 0.44714934 0.0064815534 -0.15888897
0.25806323 0.42070907 0.31368855 0.28223744 0.11620113 0.24134663 0.21299486 0.050775897
0.24369614 -0.19395112 -0.037255302 0.0186649 0.18397994 -0.026627073 0.16382638 0.24276786
0.2859389 -0.24844463 0.0007205942 0.13269694 0.12638086 -0.024584733 0.1365794 -0.08520538

weight f4 [32]
00000000: 2452 543f 6f3d 853f 9ad5 9f3f a9d6 8b3f
00000010: 09bf 923f d0bd aa3f f4f3 733f d2e5 773f
00000020: 9a70 a13f 738f 983f d249 973f 9e29 9e3f
00000030: ca3b 6f3f 93bb a23f ea40 a83f 9375 993f
00000040: c5e9 673f 0b6d 883f dd80 8e3f 4a59 683f
00000050: 0fd2 b23f a8cb 663f ad32 9d3f 5dce 443f
00000060: 5045 563f b096 ba3f 9bf3 5b3f ff45 823f
00000070: ff30 c13f fc63 5c3f 7e01 b43f 0e6e 4e3f
0.82937837 1.0409373 1.2487061 1.0924884 1.1464549 1.3339176 0.9529412 0.9683505
1.2612488 1.1918777 1.1819403 1.235645 0.93450606 1.2713493 1.314481 1.1989006
0.9059108 1.0658277 1.1133076 0.90761244 1.3970355 0.90154505 1.228109 0.76877385
0.8369951 1.4577236 0.8591859 1.0177611 1.5093077 0.86090064 1.4062955 0.8063668

bias f4 [32]
00000000: 23a1 c03d f44b d4bd e70a 163e 31c5 f63d
00000010: ef70 fc3d 456f f93d 0caf 283e f68b f33c
00000020: 8fcc b03d 1630 2f3d 6fcc 323d af87 fe3d
00000030: 3334 96bd bb91 253d 855e c83d 7b27 ef3d
00000040: dc9b b4bd 5b25 bebb bbc4 c83d f1fc b03d
00000050: dbb8 ce3d 06fd 0a3e b2f1 5c3d 8b37 953d
00000060: 0d91 cb3d 1c3e d63a 7e32 2abd 02eb 673d
00000070: f097 9b3c 03f5 d03d f518 f33d 610d 893d
0.094057344 -0.103660494 0.14652596 0.1204933 0.12326228 0.12179426 0.16473025 0.029729825
0.086327665 0.042770468 0.043651994 0.12428223 -0.07334175 0.040422183 0.09783653 0.11677452
-0.0881879 -0.005802793 0.09803148 0.08641995 0.10093852 0.13573083 0.053941436 0.072859846
0.099397756 0.0016345414 -0.04155206 0.056620605 0.018993348 0.10202982 0.118699946 0.06692005

running_mean f4 [32]
00000000: cc0b 2141 0400 0080 fba4 ed41 6099 ad41
00000010: 696d 2741 2952 cf41 4aa1 5e41 0400 0080
00000020: fff9 f941 8470 1242 85a0 0a41 ffdd c241
00000030: 6cfb 4141 fdb3 5742 26c9 8042 3a31 6b41
00000040: 0400 0080 0400 0080 e1f2 dd41 6419 0c42
00000050: 2fa3 0b42 a079 a041 9fbc 0142 c71b 1342
00000060: 52f6 9b41 a2f9 9141 0400 0080 0400 0080
00000070: ecd9 b641 7152 9341 46f7 4642 0400 0080
10.06538 -6e-45 29.705557 21.69989 10.464211 25.915117 13.914377 -6e-45
31.247068 36.60988 8.664189 24.358397 12.123882 53.92577 64.39287 14.699518
-6e-45 -6e-45 27.743593 35.024796 34.90936 20.059387 32.4342 36.777126
19.495274 18.246891 -6e-45 -6e-45 22.856407 18.415255 49.741478 -6e-45

running_var f4 [32]
00000000: feb7 e442 0400 0000 e913 8244 6f91 0844
00000010: a8f6 f542 7e0a 3d44 15df 6343 0400 0000
00000020: 9477 8d44 7d59 c144 6585 a342 9e65 2a44
00000030: 07b0 2a43 c65b 5445 d0ce 9645 bb17 7c43
00000040: 0400 0000 0400 0000 7338 6344 4732 b444
00000050: 3743 b144 813f ed43 0510 9944 a1eb c344
00000060: c69f d943 b4ca c943 0400 0000 0400 0000
00000070: ac18 1844 0a86 c943 091b 3445 0400 0000
114.35936 6e-45 1040.6222 546.2724 122.98175 756.16394 227.87141 6e-45
1131.7368 1546.7965 81.76054 681.58777 170.6876 3397.7358 4825.8516 252.0927
6e-45 6e-45 908.882 1441.5712 1418.1005 474.49612 1224.5006 1567.3634
435.24823 403.58362 6e-45 6e-45 608.3855 403.04718 2881.6897 6e-45

weight f4 [32, 32]
00000000: c8cc e03d 1fd8 86bd e305 bbbd dd5b 2bbe
00000010: 8e38 4cbe 5630 ebbd 929d 223e d97e 1ebe
00000020: 6df1 0ebe f136 4ebe 1dd8 1cbe 038e 37be
00000030: ab44 84bd d711 0fbe 0e7d bfbe e5d5 36bd
00000040: cd0c 1fbc f212 e33d 4b64 3bbe f8e9 b0bd
00000050: 3a0d a2be aae6 b53c 6d8c c8be 1c09 1abe
00000060: fac6 89be 3f34 90be 0a5a a43e c283 713e
00000070: ec62 e5be e94a 39be 5b2e 71be 5835 623e
00000080: 506b 043e 711d ba3d 4e82 2b3e 83bc 073e
00000090: d781 5cbd 579b ad3e bd90 a5bc ba01 fabd
000000a0: 748b 003f 8822 a33e a75d ae3e d1b8 d8bd
000000b0: 3a56 d73e 9de1 7d3e a46f bb3e 3217 9f3e
000000c0: 8a83 5abd 6b16 48bb f940 113e 8643 563e
000000d0: dd56 ad3e cc69 f53d bebf 443e 76e8 cb3e
000000e0: 5cab a43e c2ff d23e da4a 283e e6ba cabd
000000f0: 342d 203f f2a1 b63e 63cb 233e b5ff ac3d
00000100: 0648 373e 3fc8 cebc 7630 773e 1db3 60bc
00000110: cc32 5a3d 2661 953e bb8c 37be f2c8 7ebd
00000120: 3061 df3e 900e a33e 1cde 913e 0535 503e
00000130: 09eb 0e3f 0499 bc3e bedd 803e da98 c73e
00000140: d1cf 1c3e 8806 30be 00de 843e fe12 e13e
00000150: 118d 923e bfe6 ac3e 1567 963e 5913 573e
00000160: e355 5e3e 5836 9c3e 5642 0aba 7cb7 db3b
00000170: 2d9d 2c3f 1a82 0a3e c2af 573e 165b 46bd
00000180: 9d3f 2b3e fc8f bbbd 97aa 19bc 2f23 953e
00000190: da29 283d ffbc cd3d 3dea 1d3c 2fe8 39bb
000001a0: fb46 abbc 8231 fb3c 3cde 4e3e e79a 673e
000001b0: c440 533e d85a 893e 6c30 0d3e 48c1 cb3c
000001c0: cf4e 173e 38aa f43c 8733 9f3d caa0 5f3e
000001d0: a909 8fbd 5ba3 6e3e f7c1 cd3d 4e34 803c
000001e0: 21f3 473e b727 7f3e 9034 833e bbaa 223e
000001f0: c0b1 f93d abac 57bc a0b5 94ba 4972 2cbe
00000200: 1748 e13e 0fbf 9abe 2f23 e73e 538c d73e
00000210: 1724 033f 4032 493f f64b 933e e150 4b3e
00000220: 3385 273f 2c18 103f 55e7 0e3f a5ed f33e
00000230: 5ee8 553e 4a01 e23e d580 173f 0e48 333f
00000240: d466 67be f2cd a73d 0e42 393f fb0a e43e
00000250: 7ddf 463f 7625 ea3e 7403 fd3e c001 0a3f
00000260: 6132 203f 76a4 1e3f ef48 02be cc04 143f
00000270: 2c24 3e3f 9644 d03e 46ef 243f 7560 bb3e
00000280: 5a5f a7bd eff8 903d 540f a2bd fd68 023e
00000290: 16cb 16be e6f7 04be cd71 803c ef3c 49be
000002a0: 78c8 023d 5adb edbd 9d00 0fbe 52f9 82bd
000002b0: b360 a8bd ea2e d83d 762a 33bd a95f 9a3d
000002c0: adfc b23d d75f 813e 3162 8ebd f5c0 0fbd
000002d0: b8c6 be3b 5817 c2bc 7ef5 34be d7d5 92bd
000002e0: cc80 5bbe 937e dabd f131 803b 47f8 95bd
000002f0: cdd0 e7bd 497c 1bbd 48ff 113e 0358 68be
00000300: cea6 28be 720c 8f3e f202 703d 0a93 fcbd
00000310: ad1b 2b3d fe60 893d 9028 4fbe b775 c7bd
00000320: 40ee 0bbe f744 fe3c b8fe 503e 10ab b33d
00000330: 1b14 08be c641 4c3e 3867 d6bd b845 5f3e
00000340: 9f01 43bc 1b49 923d 3130 0fbe 481f 54be
00000350: 05ff 59bb b00c dbbc db7b a53d c621 153e
00000360: 815c ddbd 349b 9f3e 79d5 6abc 2f7d e3be
00000370: 9107 27be 9054 3abd fbcd bf3d c661 1ebe
00000380: 9366 e13e 8341 5abe 58c6 ea3e 6a0d 263f
00000390: 230e f63e 5320 9a3e e70d 253f a86a 8b3e
000003a0: ca0a 7f3e 7fac 853e a390 693d cd76 ff3e
000003b0: 5de5 393e d6e7 a33d 8344 a93e 1625 933e
000003c0: 6021 10bf 38dd 48bb eadb c43e be44 a93e
000003d0: 3ac3 703e a674 d33e eb48 193e 4ab6 643e
000003e0: e0c8 033e 918e 033d 9ff1 b7bd 9eeb e13e
000003f0: f8cb 36bd 3ec8 a23e 00ec 533e 40b6 c03e
0.10976559 -0.065841906 -0.09131982 -0.16734262 -0.19943449 -0.11483829 0.15880421 -0.15478076
-0.13959284 -0.20138146 -0.15316816 -0.17925267 -0.0645841 -0.13971649 -0.37400097 -0.04463758
-0.009707642 0.11087598 -0.18299977 -0.08638376 -0.31650716 0.022204716 -0.39169636 -0.15042537
-0.2690962 -0.2816486 0.32099944 0.23585418 -0.44802034 -0.18094982 -0.2355284 0.22090662
0.12931561 0.09087647 0.16748926 0.13255505 -0.053834762 0.33907577 -0.020210618 -0.122073606
0.5021279 0.31862283 0.34055826 -0.10582126 0.42057973 0.24793096 0.36608613 0.31072384
-0.0533481 -0.003053094 0.14184941 0.20924196 0.33855334 0.1198307 0.19213769 0.3982579
0.32161987 0.41210753 0.16434804 -0.09898929 0.62568974 0.3567043 0.15995555 0.0844721
0.17898569 -0.02524197 0.2413958 -0.013714579 0.0532711 0.2917568 -0.17924778 -0.062203355
0.43628836 0.31847048 0.28489769 0.20332725 0.55827385 0.36835492 0.25169176 0.38983804
0.1531365 -0.17189991 0.25950623 0.43959802 0.2862325 0.33769795 0.2937552 0.21003474
0.2171245 0.3051021 -0.0005274167 0.0067052227 0.6742733 0.13526192 0.2106314 -0.04842671
0.16723485 -0.09158322 -0.009379051 0.29128405 0.041055538 0.10045814 0.009638366 -0.0028367152
-0.02090787 0.030663256 0.20201963 0.22617684 0.20630175 0.2682712 0.13788003 0.024872437
0.14776157 0.029866323 0.077735 0.2183868 -0.069842644 0.23304503 0.100467615 0.01564994
0.1952634 0.24917494 0.2562604 0.15885441 0.12192106 -0.013163726 -0.0011345632 -0.16840471
0.44000313 -0.3022389 0.4514403 0.42099246 0.51226944 0.785923 0.2876889 0.19855072
0.6543762 0.56286883 0.55821735 0.47642246 0.20889422 0.44141608 0.5918096 0.7003182
-0.2259782 0.08193578 0.72366416 0.44539627 0.77684766 0.45731705 0.49416697 0.5390892
0.6257687 0.619697 -0.12723134 0.5781982 0.74273944 0.40677327 0.644276 0.36597028
-0.08172484 0.0707873 -0.0791308 0.12735362 -0.14725909 -0.12985191 0.015679264 -0.1965215
0.031929463 -0.116141036 -0.13965078 -0.0639521 -0.08221569 0.10555823 -0.043741666 0.07537777
0.087396 0.25268432 -0.06952322 -0.035096128 0.005822029 -0.023692772 -0.17671773 -0.07169693
-0.21435851 -0.10668673 0.0039122035 -0.07322746 -0.113191225 -0.037960324 0.14257538 -0.22689824
-0.16469881 0.27939183 0.05859656 -0.12332733 0.04177444 0.06707953 -0.20230317 -0.09739249
-0.13665104 0.031038744 0.20409667 0.08772862 -0.1328892 0.19946966 -0.10468906 0.2180394
-0.011902242 0.0714285 -0.13983227 -0.20715058 -0.0033263576 -0.026739448 0.08080264 0.14563665
-0.10808659 0.31173098 -0.014333122 -0.44431445 -0.1631148 -0.0454908 0.093654595 -0.15466985
0.4402357 -0.21314053 0.4585445 0.6486422 0.4805766 0.30102786 0.6447434 0.2722981
0.2490646 0.26108167 0.057022702 0.49895325 0.18153901 0.080032036 0.33060083 0.28739232
-0.56300926 -0.0030649435 0.3844903 0.3306026 0.23511973 0.41299933 0.14969222 0.22335163
0.12869596 0.032118384 -0.089816324 0.44125074 -0.044628114 0.31793398 0.20695496 0.37639046

bias f4 [32]
00000000: d11f 5f3d b4d2 82bc b721 813d 0a68 f8be
00000010: 6f4f ff3e 1c15 a7be 3ae4 04bf d931 263e
00000020: 3e36 e3bd 78f7 88bd 5c9b 393e 9148 89be
00000030: f7e6 aebd ec1a f73d 09db c0be d114 123e
00000040: 654d 233e 27fe 6bbe 6b52 15bf 4634 db3d
00000050: 4552 09bf 98ed 0abf 4ee9 4cbe 709f 1f3e
00000060: ac61 543d bab8 44bf c927 94be d0cc 25be
00000070: 8291 acbc 731f 03bf 4201 1fbf 2be4 273e
0.054473702 -0.015969612 0.06305259 -0.48516876 0.4986529 -0.32633293 -0.51910746 0.16229953
-0.1109433 -0.06687826 0.18125671 -0.26813176 -0.08540147 0.12065682 -0.3766711 0.14265753
0.15947492 -0.2304617 -0.58328885 0.1070333 -0.5364116 -0.5426879 -0.20010874 0.15588164
0.05185096 -0.7684437 -0.28936604 -0.16191411 -0.021065477 -0.5121986 -0.62111294 0.16395633

weight f4 [32, 32]
00000000: 9865 2a3e 53c8 87be 88a1 413d f54f dd3e
00000010: f87c 323e 6061 59be 777f 8dbe 706a d8be
00000020: f46d 69be ca22 2fbf 6982 8dbe 456d ca3c
00000030: fd2f 24bf 716f c1be 3e31 14bf c967 b2bd
00000040: 00ec 17bf bfb8 2bbe 47f1 11bc 189a 223f
00000050: 253b d4be 7769 66bf 288d f0bd ebfc 823e
00000060: 239e 4d3e bc71 d5bc b086 95be 9cf1 edbe
00000070: f839 86be 92f4 5a3d ab96 62be b0a4 2dbd
00000080: 071d b6be bfd7 20be 2465 ac3d 8246 04be
00000090: c2d4 f83e 3996 1b3e e98b 81bd 274e 323f
000000a0: c60a 173e c60c 673e 476b 9b38 46e2 cfbd
000000b0: 4105 f93e dd2c b5bd 26d5 d8bd 6a89 ea3d
000000c0: 8539 f33d aa7e 65be 354a de3c 9929 4ebe
000000d0: 3f25 e23d c193 6a3e 1a0a b8be 339b 4dbb
000000e0: 4114 073c 1393 013e 7af9 c13d bd32 3ebe
000000f0: 33c1 05be 2510 5fbc 2cbd 33bd e31c 9e3d
00000100: a830 8dbd f0b9 3e3e 79f9 583e 51e5 a6be
00000110: 6e5e 233f dea1 0ebc cead f13d 9866 a13e
00000120: 2a18 f73d 30a9 6f3e 4e04 a13e 2f0f 78bd
00000130: 6006 8d3e 5712 4a3e b648 e7bd e056 893e
00000140: 19a6 3fbe aa7e 96be 10cc fabd 0ff6 28bf
00000150: 751d 373e 7c52 6b3e fd45 0ebd d895 073e
00000160: d68d d33c 2ef9 f4be 30a8 483e 5896 7e3d
00000170: 20c0 ae3c 27d3 87be 9ef1 9ebc 9726 9cbc
00000180: c755 853e 787d 9abd a622 93bd f579 963e
00000190: b7b1 f7bb 5f57 87be efb2 fb3c 980e 1abf
000001a0: 7d56 dd3d 4b2c e8bd 7cb3 c1bd eeb7 87be
000001b0: 3787 24bf 12e8 17be a621 64be 4571 513d
000001c0: 66b8 f3be 7aa1 ebbd c579 ac3c 4685 063f
000001d0: 37b3 dabe f51a 03bf c0df 353e 90f2 4b3c
000001e0: c7de 0cbe 1dc5 a1bd 213d ffbd 4d21 6fbe
000001f0: 7ac1 babd dfbf 003e 7130 a9bd e4ad 9abd
00000200: e61c 193e f0bf cb3d 9394 81bc 96be 0b3e
00000210: f643 9b3e ae8a a23e 7578 c5bd 6ee8 173d
00000220: 672f 843d 2650 0e3e 22f9 133e 52de 0a3e
00000230: aa5b 81bd 6f66 d73d a45b 553e 74c6 a83e
00000240: 5500 6c3d c93a e33d 1f96 433e c96c 153f
00000250: 040d 2d3f 22ef 93bd 4da2 a5bb 2740 c93e
00000260: 1681 ca3c 8fb0 6a3e 0bb2 2f3e fc26 2f3e
00000270: c346 d43d 49d3 733e 986a 533e 2908 be3e
00000280: 0f7d d93c 8ed1 8abe e553 113e a234 6c3d
00000290: 6b3b 17be bf0d b0be 7a6e 893d 07a3 d3be
000002a0: 1e10 42bd 3b78 1cbe b032 ddbd 2ae2 9ebe
000002b0: 5841 83bd 55a4 023e ef71 8ebe 382c 00bd
000002c0: 5e1e adbe b904 f53b 57c0 08bd ab5f 853e
000002d0: 37f8 ffbd 8097 02bf 6f05 2d3e 48c1 b6be
000002e0: 7550 e4bd 0961 553c 8454 6cbe ed19 9b3e
000002f0: 039c 1abe c39e bcbd cd55 2ebe fcc5 293d
00000300: 773a 8d3e 90b1 4dbe bb90 05bc 3e04 913e
00000310: 87c0 92be 5989 61bd fb4b 09bd 01f7 b23d
00000320: 3268 5f3e 76f4 1abe 3036 2fbe 5c7a 1ebe
00000330: 9671 a7bd 4457 8ebe c070 8a3d 84ab 88be
00000340: e4fb 8cbe 992f bc3d 402b a73c 5ad3 ec3e
00000350: 6d15 cdbd 31a8 74bb 1620 063e 3336 82be
00000360: 749a f23d c5d5 ad3e 4cf1 7cbe 53c2 3dbe
00000370: 3535 643e b137 b13e 492b 743e 9767 6c3e
00000380: 196d 1a3d 6c81 0f3e 184c 0c3f 2301 e13d
00000390: 9932 fa3e 2364 e93d 35ec 74be 3a27 fc3e
000003a0: 8c03 d33b d0a8 5cbc 4d15 9d3d c39b 583e
000003b0: 35a8 9c3d 072e cdbc c082 8e3e a025 883d
000003c0: fd88 233d db70 96bc 371d 083e ce61 ba3e
000003d0: 5277 ab3e 893a dd3d d4af 7c3d d672 863e
000003e0: 9a2b 153f e97a 463e f7e3 f43d 1c30 913e
000003f0: b333 333e 0e67 2abb df0b 4d3e f009 403e
0.16640317 -0.26520023 0.04727319 0.43225065 0.17430484 -0.21228552 -0.2763631 -0.42268705
-0.2279585 -0.6841246 -0.27638558 0.024710307 -0.64135724 -0.37780336 -0.5788764 -0.08711202
-0.5934448 -0.16769694 -0.008907623 0.6351638 -0.41451374 -0.90004677 -0.117456734 0.25583586
0.20079856 -0.02605521 -0.2920432 -0.46473396 -0.26216102 0.053455897 -0.22127788 -0.042393386
-0.3556902 -0.157073 0.084177285 -0.12917522 0.4859982 0.15194024 -0.06325514 0.696505
0.14750203 0.22563466 7.410958e-05 -0.1015058 0.4863682 -0.088464476 -0.1058753 0.11451991
0.11876205 -0.224116 0.027134994 -0.20133056 0.110422604 0.22907926 -0.35945207 -0.0031373024
0.008244575 0.1265376 0.09471412 -0.18574043 -0.13061981 -0.013614689 -0.04388158 0.077203535
-0.06894046 0.18625617 0.21188916 -0.3259683 0.63815963 -0.008705584 0.11800729 0.31523585
0.12065156 0.23404384 0.31448597 -0.060561355 0.27543926 0.19733559 -0.112931654 0.26824093
-0.18715705 -0.29393512 -0.12245953 -0.66000456 0.1788233 0.22980684 -0.034734715 0.13240755
0.025824469 -0.4784636 0.19595408 0.062155098 0.021331847 -0.26528284 -0.019402321 -0.01906137
0.26042005 -0.075434625 -0.07184343 0.2938992 -0.007559027 -0.26433846 0.03072497 -0.6017852
0.10807512 -0.11336573 -0.09458062 -0.26507515 -0.6426882 -0.14834622 -0.22278461 0.051133413
-0.47601622 -0.115054086 0.021054158 0.5254711 -0.42714855 -0.5121301 0.17761135 0.012447968
-0.13756858 -0.078989245 -0.12462831 -0.23352547 -0.09118934 0.12573193 -0.082611926 -0.07552698
0.1495243 0.099487185 -0.015817916 0.13646922 0.30325288 0.3174643 -0.09642116 0.037086897
0.06454354 0.13897762 0.14450505 0.13561371 -0.06316312 0.105175845 0.2083574 0.32963908
0.057617504 0.11095197 0.19100235 0.5836912 0.67597985 -0.07223345 -0.005054748 0.39306757
0.024719756 0.22918914 0.17157762 0.17104715 0.10365059 0.23811068 0.20646131 0.371156
0.02654889 -0.27113003 0.1419216 0.057667382 -0.1476876 -0.34385487 0.06710525 -0.41335317
-0.04737865 -0.1528024 -0.108006835 -0.31031924 -0.06408948 0.12758 -0.278213 -0.03129217
-0.3381223 0.0074773696 -0.033386555 0.2604955 -0.12498515 -0.5101242 0.16896604 -0.35694337
-0.111481585 0.013023623 -0.23079115 0.30293217 -0.15098576 -0.09209969 -0.17024918 0.04144858
0.27583668 -0.20087266 -0.008152182 0.2832355 -0.28662512 -0.055062626 -0.033519726 0.087385185
0.21817091 -0.15132317 -0.17110515 -0.15476364 -0.08175962 -0.27800953 0.067597866 -0.26693356
-0.27535927 0.09188766 0.020406365 0.46254998 -0.10013852 -0.0037331695 0.13098177 -0.25431976
0.11845866 0.33952156 -0.24701422 -0.1853116 0.22285922 0.34612802 0.23844637 0.23086391
0.0377017 0.14014214 0.5480361 0.10986545 0.48866728 0.11396053 -0.23918231 0.49248677
0.006439632 -0.013467982 0.076700784 0.21153168 0.076492704 -0.025046362 0.2783413 0.066478014
0.039925564 -0.01836436 0.13292395 0.36402744 0.33489472 0.1080218 0.06169112 0.26259488
0.58269656 0.19382824 0.11957543 0.28357017 0.1750019 -0.0026001367 0.2002406 0.18753791

bias f4 [32]
00000000: 8116 a83c e761 4e3e 71e4 1f3e 7810 073e
00000010: f70c febd 0786 9d3e 4b04 fabe c862 d2ba
00000020: 21e1 713e d188 803e 9ae2 d53e 3e9a ac3d
00000030: 11b2 593e 1f56 20bf 74ed 9a3e 9756 1e3f
00000040: acc9 1f3f 71b0 c23d 9938 303f 42d9 af3e
00000050: 0c0f 30bf b857 d13c fcf0 6ebc c430 0f3e
00000060: 1e34 77bc 2cd9 32bf b950 083e b913 6fbe
00000070: bfdf c53e ae94 d23e ca7a ef3c 3ce6 b5be
0.020518543 0.20154534 0.15614487 0.13189876 -0.124048166 0.30766317 -0.488314 -0.0016051168
0.23621036 0.25104383 0.41774446 0.08427857 0.21259333 -0.6263141 0.30259287 0.61850876
0.624171 0.0950631 0.6883636 0.34345442 -0.6877296 0.025554523 -0.014583822 0.13983446
-0.015088109 -0.6986263 0.13312043 -0.23347367 0.38647267 0.4112906 0.029233355 -0.35527217

weight f4 [32]
00000000: b70f 243f d240 303f 73ac 623f 9ddb 6e3f
00000010: ea90 1e3f ee45 5a3f 8ae3 9b3d 64c4 133f
00000020: 2c81 d63e c2db 663f 6121 b73e 9f33 5b3f
00000030: 9976 6a3f 2ea8 413f 6867 583f b14a 8b3f
00000040: 2dd8 e03e 1ede d03f 4fdc 2b3f 1556 7b3f
00000050: 9b12 b83f ff8c 8c3f da4e db3e 1ecf 3b3f
00000060: 847f 173f f9ea 9f3f d570 3e3f cb02 1c3f
00000070: e250 883f 1da5 803f ead7 763f 4353 973f
0.6408648 0.6884891 0.88544387 0.93303853 0.6193987 0.85262954 0.07611759 0.57721543
0.41895425 0.90179074 0.35767654 0.8562564 0.91587216 0.75647247 0.84532785 1.0882169
0.4391493 1.6317785 0.6713304 0.98178226 1.4380678 1.0980529 0.42833596 0.7336291
0.5917895 1.2493583 0.7439092 0.6094176 1.0649683 1.0050389 0.9642321 1.1822284

bias f4 [32]
00000000: 91dc ce3c 6456 5d3e 143d d13d ba8e 4e3e
00000010: a9bf d43d 236e d73e 765b 313e e6bd 9fbc
00000020: 3c0b 8cbe 5e65 e03d 9174 38bd d536 ba3d
00000030: 326d 953e 3d2b c0bd 44e2 993e b3fa 583d
00000040: 5aa3 ca3c f283 6bbd 0729 b13e c0d4 883d
00000050: 81eb a23c 92df 7abd cffa 333d ac36 563d
00000060: c66a 0e3d fb89 b4bd 202a 8d3e 2b4e 8e3d
00000070: 5dd9 c6bd 3706 4fbe 0d45 143d 8b8f 843e
0.025251659 0.21614987 0.10216728 0.20171633 0.10388119 0.42076215 0.17320046 -0.01949973
-0.2735232 0.10956834 -0.04503304 0.0909249 0.29184872 -0.09383247 0.3005544 0.05297346
0.024736095 -0.05749888 0.34601614 0.06681204 0.019887688 -0.06124837 0.04394036 0.052298233
0.034769796 -0.0881538 0.275712 0.06948503 -0.097094275 -0.20217215 0.036198664 0.25890765

running_mean f4 [32]
00000000: 7ded 9f3f 159e 1a41 ff3e 6041 3267 1d40
00000010: 128a 9341 d2d7 0240 41a0 4940 77e8 b341
00000020: b723 493d 40de c63e 2cf9 1d3c f051 7840
00000030: 648f 1140 d26d 3abc d705 2140 8cee c041
00000040: a095 2140 1124 9941 88ef 0942 8544 ac41
00000050: 580c b441 6f12 0341 32e3 fb3e f083 8a41
00000060: cdd2 2740 b66a a1bc 411a 1340 b2d2 a040
00000070: 3364 0842 5b1b 5341 ff15 1e41 5393 4b40
1.2494351 9.663594 14.01538 2.4594235 18.442417 2.0444226 3.1504061 22.488508
0.049106326 0.38841438 0.009641927 3.880001 2.2743769 -0.011378722 2.5159814 24.116478
2.5247574 19.14261 34.483917 21.533457 22.506027 8.192 0.49196774 17.314423
2.6222413 -0.019704204 2.2984774 5.0257196 34.09785 13.194179 9.88037 3.180867

running_var f4 [32]
00000000: 5c81 d63f ddb8 df44 b29c 7c45 767b 0241
00000010: 470d 7445 3681 ae40 e285 8941 98e4 ef45
00000020: 6cf8 163d 1e7f e33e 7076 663c dca5 4643
00000030: 0c3c bd40 5b57 2f3a 60c7 0441 adc6 3c46
00000040: d0a9 bc40 68ab ef45 75ee ce46 6e04 1d46
00000050: c009 3e46 1918 ce43 0273 9c3e f240 cd45
00000060: bd93 1741 f7a0 c03a 83c0 fd40 4b0b 2044
00000070: 9514 d146 5c52 5645 c633 5044 f189 8f41
1.6758227 1789.777 4041.7935 8.155142 3904.8298 5.453273 17.190372 7676.574
0.036858007 0.4443292 0.014066324 198.64789 5.91358 0.0006688737 8.298676 12081.669
5.895729 7669.426 26487.229 10049.107 12162.4375 412.18826 0.30556494 6568.118
9.473569 0.0014696409 7.92975 640.17645 26762.291 3429.1475 832.80896 17.942354

weight f4 [32, 32]
00000000: 7ca5 c83d 5990 693d 29ee 54bd 00b0 393e
00000010: 1887 8bbe 6568 14be 5205 e4be a38c 8e3d
00000020: 4efc 873e f5db d1bd 3069 13be fad9 c9bd
00000030: afd0 aebd 1c39 4fbc 1364 94bd c356 9a3d
00000040: f26e 523e ed46 87bd fb56 9cbe a854 b9bd
00000050: 67fd 1f3d c67e cabd d9cf 8dbd d52a 79bd
00000060: 8278 23bd df04 bf3d c65f 32be b9b9 88bd
00000070: fe85 493d b12f 8e3e fd1e 2f3e b118 b2be
00000080: 4cd6 a93e 5cb3 113e ea24 c73e 24fe 2e3f
00000090: b933 f63d 916d 9f3e 4ff4 653e 1b49 e5bb
000000a0: 9c99 833e 1320 7e3e 4a90 99bc 216d c33d
000000b0: 1bdb cd3e 77f2 8c3e 194f cc3e 97c3 3dbe
000000c0: ae29 a3bd 04e6 483d b1dd a3bd 9762 7e3e
000000d0: 4a5c be3d 255d df3e 5316 18be 88ae 873e
000000e0: 0389 a13e ca0f 5c3f aec0 bf3e 1e8b 273e
000000f0: 6628 b13d d237 8a3d 1632 693c 4f67 523f
00000100: f51a a7bd a8a5 24bf 0e8a c8be 3de4 c2bd
00000110: ce03 0dbf a549 183f 048c 23be 1139 14bf
00000120: 9c86 19be 56c9 71bf b361 2b3e 91a1 64bf
00000130: 5fdb e93e 007e d53d 5630 153f f752 66bf
00000140: 53a2 ebbe 3b54 90bf 84fd a0be 4f75 3abf
00000150: 58db c2bf c571 97bf 4225 c5bc d2df 05bf
00000160: bb6b 9cbd 8631 18bf f7d1 ef3d eff0 0cbe
00000170: e0bb 7abf 05ea 2dbe 427e 5bbf 95ab aabe
00000180: 1ced 60bb 6e8b 9ebd f78e e0be 9ee1 95be
00000190: fb29 c73d 5b15 8dbe 4a0d 20be 0247 07be
000001a0: c790 153e 0d33 48be 5dc8 d9bd 0c30 b43d
000001b0: f174 48be d285 9b3e 2a3a e6be 2024 6d3e
000001c0: aa1f 703e 95ba 3f3e 9d0a d6be 1d79 fcbe
000001d0: 02ce bfbd 484e 5a3e 7bbb dd3d a6eb 50be
000001e0: 0add 1fbd 3ac7 32be 506d a7be c512 21be
000001f0: 0f90 b73e adda a8be 38a0 043e a39a aebe
00000200: 5337 46be 2a0e 55be 49fa 17bf d47a 88be
00000210: acef dcbd 78dc b1be 2a7b 66be 9c1a e9bd
00000220: 31f8 843e 7b3b 74be bda0 1bbe 9f3e 2bbd
00000230: a2e5 433d d809 1e3e d31d bebd 03e4 693d
00000240: 87dc cb3e cac6 76be 9a22 08bf a4ec 95be
00000250: be9a 9ebe ef05 2abe 4da0 163e d615 fcbe
00000260: d8de c3bd 8ab5 e4bd fc05 c6be 1e56 2bbe
00000270: 4abb ac3e 7ddf 5d3e e33a 0dbe c421 a2be
00000280: 5f20 3d3d ab2d bcbe f239 0cbf 1705 ce3e
00000290: b4a8 cabe 8875 003f 4f3d 6a3c b130 2dbf
000002a0: 6967 2abe 7883 14bf 7682 8a3e 7d3e 63bf
000002b0: ae42 dc3e a645 8a3e e2b5 943e 81b6 5ebf
000002c0: a7d0 3dbd fd1d 6cbf fac6 8bbe a10c 42bf
000002d0: 6640 93bf 3efb 65bf 9983 64be 99bf 05bf
000002e0: 02c3 7c3e 7f6d d7be d62e 1b3d 4994 ff3c
000002f0: 776f 84bf e8b3 53be 4128 74bf 6c5d 1fbe
00000300: aa06 9f3d 2e19 283d 5e54 05be 9542 a93e
00000310: 1e3f 2f3e aaef 933e 2a40 613e dc8d 9f3e
00000320: 8b3c a73e cdfd 9c3e f086 b5be 9950 bbbb
00000330: 4558 233e ca4f 133f 3894 983e 83b6 97be
00000340: 4de8 7abe 5ff7 fb3d 389e 93be b97e 8f3d
00000350: 81a7 a03e 3663 e33e 086e 853e 8b9c f63d
00000360: fa79 c03e 104b eb3e 1dee c03d fa5c e83d
00000370: e227 c9be e2dc 213e 0ccb 793e 0aaf c93e
00000380: e542 b23e ee70 ddbd bb2d ac3c 520e efbc
00000390: 220f d4be e88b 003e e7af 21be f2f4 e8be
000003a0: 9235 d4bc 64d5 a0be 682d 87be de85 7bbe
000003b0: 40c6 af3e ee0d fc3e 43dd 703e ea05 60be
000003c0: bef7 733e 75e1 90be f4d2 95be 0ae1 bcbe
000003d0: 3877 53be af25 9abe a234 2f3e bced 99be
000003e0: 0c30 5b3d f2be fb3d 1014 383e 119d 93bc
000003f0: 786e 20be 4342 f7bd e310 ecbd 9a89 283c
0.09797189 0.057022426 -0.05198494 0.18133545 -0.27251506 -0.14492948 -0.4453531 0.06960418
0.2655968 -0.102470316 -0.14395595 -0.09856029 -0.08535897 -0.012647893 -0.0724565 0.0753608
0.20550135 -0.06605325 -0.3053511 -0.0904935 0.039060023 -0.09887461 -0.069244094 -0.060831863
-0.039909847 0.09327101 -0.17419347 -0.06676049 0.04920005 0.2777076 0.17101665 -0.34784463
0.33171308 0.14228576 0.3889535 0.6835654 0.12021584 0.3113828 0.22456478 -0.0069972402
0.25703132 0.24816923 -0.01874556 0.09542299 0.40206227 0.27528736 0.39904097 -0.18531643
-0.07966934 0.049047485 -0.08001269 0.24842297 0.092949465 0.4362575 -0.14852266 0.26500344
0.31549844 0.8596159 0.3745169 0.16361663 0.086502835 0.06748928 0.014233133 0.82188886
-0.081594385 -0.6431527 -0.39167827 -0.09516189 -0.5508393 0.5948737 -0.1597138 -0.57899576
-0.14992756 -0.9444784 0.16736488 -0.8930903 0.4567518 0.10424423 0.5827688 -0.89970344
-0.4602228 -1.1275705 -0.31443417 -0.7283525 -1.5223188 -1.1831595 -0.024065617 -0.5229465
-0.076377355 -0.59450567 0.117099695 -0.13763784 -0.97942924 -0.16983803 -0.8573953 -0.33334032
-0.0034321016 -0.07741438 -0.43859074 -0.29273695 0.09724804 -0.27555355 -0.1563007 -0.13210681
0.1460601 -0.19550724 -0.106339194 0.08798227 -0.1957586 0.30375534 -0.4496625 0.23158312
0.23449579 0.18723519 -0.41804972 -0.49311152 -0.09365465 0.21318924 0.10826775 -0.20402393
-0.03902916 -0.17458811 -0.32700586 -0.15729816 0.35852095 -0.32979336 0.12951744 -0.34102353
-0.19357042 -0.20806184 -0.5936628 -0.2665621 -0.10787901 -0.34738517 -0.22507921 -0.113820285
0.25970605 -0.23850815 -0.15198036 -0.041807767 0.047826417 0.15433443 -0.09283032 0.057102215
0.39816687 -0.2409927 -0.531778 -0.29282105 -0.30977434 -0.16603826 0.14709587 -0.4923541
-0.095639884 -0.11167438 -0.3867644 -0.1673207 0.3373664 0.21667285 -0.13791995 -0.31666386
0.04617345 -0.36753592 -0.5477592 0.40238258 -0.39581835 0.5017934 0.014296844 -0.6765242
-0.1664101 -0.58013105 0.2705266 -0.88767225 0.43019623 0.27006263 0.29045016 -0.8699723
-0.046341565 -0.9223326 -0.27300245 -0.7580052 -1.1504028 -0.8983649 -0.22315826 -0.5224548
0.24683765 -0.42075726 0.037886463 0.031198638 -1.0346516 -0.20674098 -0.9537392 -0.15562981
0.07764943 0.04103964 -0.13020465 0.3305861 0.17113921 0.28893787 0.21997133 0.31162918
0.32663378 0.30662385 -0.35454512 -0.005716395 0.15951641 0.57543623 0.29800582 -0.29631433
-0.24502678 0.12303042 -0.2883165 0.07006592 0.31377795 0.4441163 0.2606051 0.12041577
0.3759306 0.45955706 0.094204165 0.11345859 -0.3928824 0.15806916 0.24393862 0.39391357
0.3481666 -0.10812555 0.0210179 -0.029181633 -0.41417795 0.1255337 -0.15789758 -0.45499378
-0.02590445 -0.31412804 -0.2640183 -0.24562785 0.3433094 0.49229378 0.23521905 -0.21877256
0.23824975 -0.2829701 -0.29262507 -0.3689044 -0.20650947 -0.30106875 0.17109922 -0.3006419
0.053512618 0.12292279 0.17976403 -0.018019231 -0.1566714 -0.12073185 -0.115266584 0.010286713

bias f4 [32]
00000000: 8760 f8be dbf2 0cbf 051b de3e c456 88be
00000010: c0f5 bd3c 0891 d3bb 6e46 31bf 90b3 5d3c
00000020: 385c a83c 117c b0be 2f4b f2be 2088 a03e
00000030: ef3f 09be 0217 2bbe becc 4cbd ec56 6f3e
00000040: 4e45 983e 0916 663e 61a4 1cbf f501 8e3e
00000050: ccbe 1a3e 73f2 52bf e31a 2dbf 64c5 11bf
00000060: a0f0 fbbe 0f15 c43e dd35 873d 3c94 7b3e
00000070: c886 41be b8e0 a63e 3ce7 ab3d ae50 e73d
-0.48511145 -0.5505807 0.4337999 -0.26628697 0.023188472 -0.006456498 -0.6924809 0.013531581
0.020551786 -0.34469655 -0.47322986 0.31353855 -0.13403295 -0.16707996 -0.049999945 0.23373002
0.29740375 0.22469343 -0.6118832 0.27735868 0.15111846 -0.824012 -0.6761915 -0.5694182
-0.4920702 0.38297316 0.066020705 0.24568266 -0.18899071 0.32593322 0.08393714 0.11294685

weight f4 [32, 32]
00000000: 0670 92be 8df3 b93e 10fa b6be aeaa d8bd
00000010: 0a19 fb3d 53d9 43be 8213 d53d 6ca3 bbbe
00000020: eeb9 48be e6bf 01bf 5437 26be fd02 073f
00000030: c4a7 0d3f 44aa 053f 8181 0abe 5d31 54be
00000040: 0bb0 bc3e 9c65 ecbe c5e4 53be a4ff 203e
00000050: e28c 3b3e 1fa4 81be ca8e 90be 3665 89be
00000060: 8bd4 42bf 96e7 8dbe 0dc1 d0be f483 f03e
00000070: 6740 2bbe 6da9 e33c 545e 51bf 8007 b7bc
00000080: b95c 8cbe 83be 2a3d 6a05 49be 18c0 bfbe
00000090: b0fd b8be a396 aabe 6288 3d3e 659d 88be
000000a0: a107 5abe 3767 c6be db7b e7be a6f9 e73d
000000b0: 4c36 05bd 097f c63d 7c44 a8be 5b5b d53c
000000c0: 082b 3bbc b1af 13bf dae1 bebe 1012 f83e
000000d0: 5181 ebbe d652 dabe a0e8 81be 4022 82be
000000e0: e7e8 cbbe 2b30 b2be 4074 7abe 5874 cf3d
000000f0: 3cd1 dbbe 8962 27bd 0922 a2be cde6 ce3a
00000100: d1da a4be 35bd ccbe f033 6cbe 59fa d7bd
00000110: f02e b2be b3e8 65bf 9fcd 04bf 3720 b43d
00000120: a225 32be fc60 e6bd f609 92be 2d0e d0bd
00000130: fddf 043d 16bd 8bbe 8b66 55be f2ee 41be
00000140: 367c 31bd 4d4c 36bf 0fe0 76be 8da5 36be
00000150: 51e1 4bbd 9cb4 e8be e6bd 97be ec25 02bf
00000160: f696 22be 433e 013e 6298 84bd 6009 ed3d
00000170: 455d 96be 0faa 673d 06ad 6dbe a704 0dbf
00000180: 0369 09be 320b 66bf 4fe1 3bbe 2eac acbe
00000190: 591a e5bc bfbe 27bf 8990 a1be eec3 48be
000001a0: cfbf 6bbe 5032 0bbf c7b8 25be ed7e a3bd
000001b0: 9528 2cbe cfb1 43bd 45ec 80bc 7636 8cbe
000001c0: 0f00 27bc 5335 e6be a201 dcbe 621e 16bd
000001d0: 2e0c 28bd a29a 5a3a c8e5 92be 9ebf 99be
000001e0: 2cff 3dbf e7c4 babd 45d7 82be c1ed 833e
000001f0: 4a9c 32bf 9316 e8bd e15e 2ebe 2d8f 3dbb
00000200: a6b9 bdbd f36f bbbe cf77 663f 73e5 7abe
00000210: 25d2 ffbd dcec ea3e 4121 2ebe bfe8 af3d
00000220: 9b2c a63d 9d4c cfbd eb10 09be ce37 dfbe
00000230: 961a 6dbe 8eba 9ebe 19dc a7bd 9331 71be
00000240: efac 023e df8c fc3e 2372 853d 44dd c9bd
00000250: 1180 663e 542a f23d fcf0 aebe 6f9e 5fbe
00000260: 0281 24be f39d bc3e dcb7 7dbd 091d 883e
00000270: fc2f 5a3e 0370 64be 6ad9 7bbc 4640 21bf
00000280: 2597 1dbf b395 013f fc1d dcbe a79f 083f
00000290: 50d2 66be 8d30 e9be 0783 223f 68a7 1b3e
000002a0: 6a43 efbe 9aec 77bc d2e5 eebe f883 253e
000002b0: af97 9e3d 7adb d63e 3f36 32be 43b3 71be
000002c0: 0264 0e3c 81b4 44be fd56 dbbd 59fd 183e
000002d0: 5391 f4be fa94 333d cbdf 423b 77c8 583e
000002e0: fdc0 74be 792d b13e 51b2 adbe b99b 63be
000002f0: fef6 fbbe 40f0 513d a484 d83e d40b a7bd
00000300: f5b4 36bd 81da 5e3d 579e 293f b3f7 cf3d
00000310: 81a6 e0bd cd36 803f 7b48 78be a2ee 963e
00000320: b7db ae3e 0fe7 5abe 17e8 75bd 6829 48be
00000330: f1f9 c9be 766f 25be 1e26 953e 23dc 173d
00000340: 2263 24be 8461 153f 8de8 9f3d c135 7cbe
00000350: 13f7 52be 8917 1b3e 8c1e 893e 6549 ad3e
00000360: d58e 943d c8cb cd3e e500 8bbe 63ef f3bd
00000370: bad8 c1bd ba86 68be 6d0c 92be e425 b4be
00000380: 516e d5be a8fd 85bf 8dd3 0b3e 2cba 3dbe
00000390: 79f7 b2be de1e 6abe 5045 5bbf 9713 393e
000003a0: b4d7 d13d 9224 e03e f729 d6be 3d07 9dbe
000003b0: e81f 3bbf 7702 1ebf a0cc ee3d 70b9 b9be
000003c0: 0a8f 72be 864b c63e 873e bebe 0a4d 27bd
000003d0: ca32 cd3d 2591 79bd acb9 14bf 8421 92be
000003e0: a7af 9e3d 9aa0 663e 6116 8bbd e37d 143e
000003f0: b665 2cbe ba44 303d 7846 3e3e f062 12bf
-0.28601092 0.36318627 -0.35737658 -0.105794296 0.12260635 -0.19125871 0.104041114 -0.36648118
-0.19602177 -0.5068344 -0.16232044 0.52738935 0.55334115 0.5221293 -0.13525964 -0.20721956
0.3685306 -0.46171272 -0.20692737 0.15722519 0.18315461 -0.25320527 -0.2823394 -0.2683503
-0.76105565 -0.2771575 -0.40772286 0.46975672 -0.16723786 0.02779075 -0.8178456 -0.022342443
-0.27414492 0.041685592 -0.19630972 -0.37451243 -0.36131048 -0.33318052 0.18509057 -0.26682582
-0.21291973 -0.38750622 -0.45211682 0.113269135 -0.032522485 0.09692199 -0.3286475 0.026044538
-0.011423834 -0.5768996 -0.37281686 0.4845128 -0.45997098 -0.42641324 -0.2537279 -0.25416756
-0.39826128 -0.34802374 -0.24458408 0.10129613 -0.4293307 -0.040865455 -0.31666592 0.0015785337
-0.32198194 -0.39988104 -0.23066688 -0.10545797 -0.34801435 -0.89808196 -0.5187625 0.08795207
-0.17397168 -0.11248967 -0.28523225 -0.10158954 0.032440174 -0.272927 -0.20839898 -0.18938807
-0.043331347 -0.71210176 -0.24108909 -0.1783659 -0.049775425 -0.45450294 -0.2963707 -0.50839114
-0.158779 0.12621407 -0.06474377 0.11574054 -0.29368034 0.056558665 -0.23210534 -0.55085224
-0.13418965 -0.8986083 -0.18347667 -0.33725113 -0.027966665 -0.6552543 -0.31555584 -0.19605991
-0.23022388 -0.54373646 -0.16183768 -0.079831935 -0.16812356 -0.047776993 -0.015737662 -0.273853
-0.010192885 -0.44962558 -0.42969996 -0.03665007 -0.04102724 0.0008339082 -0.28690934 -0.30029005
-0.74217486 -0.091195874 -0.25554863 0.2576733 -0.6976973 -0.11332431 -0.17028381 -0.002892445
-0.09263925 -0.36608848 0.90026563 -0.2450159 -0.12491254 0.45883834 -0.17004873 0.08589315
0.081139766 -0.10122035 -0.1338536 -0.43597263 -0.23154673 -0.31001705 -0.08196277 -0.23554067
0.12761281 0.49326226 0.065159105 -0.09856656 0.22509791 0.1182448 -0.3416823 -0.21837781
-0.16064838 0.36839256 -0.06194292 0.26584652 0.21307367 -0.22308354 -0.01537166 -0.629887
-0.61558753 0.5061905 -0.42991626 0.5336861 -0.22541165 -0.45544854 0.6348118 0.15200579
-0.4673112 -0.015132094 -0.46659714 0.16163623 0.07743775 0.41964322 -0.17403506 -0.23603539
0.008690836 -0.19209482 -0.10709951 0.14940394 -0.47767124 0.043843247 0.0029735442 0.21170221
-0.23901744 0.34605005 -0.33925107 -0.22227372 -0.49211878 0.05125451 0.42288697 -0.08156553
-0.044606168 0.0544076 0.6625723 0.10154667 -0.10969258 1.0016724 -0.24246399 0.29478937
0.34152004 -0.21377204 -0.06003579 -0.19547045 -0.39448503 -0.161558 0.29130644 0.037075173
-0.16053441 0.5835192 0.078080274 -0.2462988 -0.20602064 0.15145697 0.26781118 0.33845058
0.072538055 0.40194535 -0.2714912 -0.11910894 -0.094651654 -0.22707644 -0.28525105 -0.35185158
-0.41685727 -1.0468035 0.13654919 -0.1852805 -0.34954432 -0.22863337 -0.8565264 0.18073879
0.1024622 0.437779 -0.41828892 -0.30669585 -0.7309556 -0.6172251 0.11660123 -0.3627429
-0.23687378 0.38729495 -0.3715708 -0.040844955 0.10019453 -0.060929436 -0.5809581 -0.28541195
0.07748347 0.22522202 -0.06791378 0.14501147 -0.16835675 0.043034293 0.18581569 -0.57182217

bias f4 [32]
00000000: 28d0 463f 2951 333f d284 d03e 87db 3b3f
00000010: eb80 413e 678f 26bd b24b f93d 769b 5b3e
00000020: 23c7 bf3e 3d27 99be 45a4 043e 9718 233f
00000030: 6719 003f d1c3 d93f 9e88 ea3e ea19 c83e
00000040: 14aa 993f 2b12 b13e f1bd d93e c263 e6bd
00000050: 9deb c8be 4861 36bd bfd6 953d 5222 403e
00000060: cd52 b83e 9ff9 003f b219 e0be 69e1 83be
00000070: d874 b43e 8e2e 02bf 86be 21be 9f1b 14be
0.7766137 0.70045716 0.40726334 0.7338185 0.18896835 -0.040664103 0.12172641 0.21446022
0.37456617 -0.2991275 0.12953289 0.63709396 0.5003876 1.7012883 0.45807356 0.3908227
1.2005029 0.34584174 0.42527726 -0.11249496 -0.3924226 -0.04452637 0.0731635 0.18763092
0.36000672 0.5038089 -0.43769604 -0.25757912 0.35245395 -0.50852287 -0.15795335 -0.14463662

weight f4 [32]
00000000: 62d3 333f fdbc 6c3f 2fae 813f b285 263f
00000010: 4727 a63f 1e63 343f 4abc 983f 1473 d33f
00000020: d095 0d3f 2c5a 013f 8c7a 0040 ddc9 9e3f
00000030: 404b d83f d3bb 9f3f 8a06 a13f 893b 703f
00000040: a592 e63f 5cd0 593f a02c 1340 fd77 053f
00000050: 8a32 843f 54dd 843f 2832 243f 84df 5d3f
00000060: 76cc 183f 7e3a 943f 98da 5440 3f0d 9e3e
00000070: 6e09 233f 90ef e23f 9333 f63f dfeb ce3f
0.7024442 0.92475873 1.0131282 0.6504775 1.2980736 0.7046374 1.1932461 1.6519494
0.5530672 0.50528216 2.0074797 1.2405354 1.6897964 1.2479194 1.258012 0.93840843
1.8013502 0.85083556 2.2995987 0.5213621 1.0327923 1.0380044 0.6413903 0.8666918
0.5968698 1.158035 3.325842 0.3086948 0.63686264 1.7729359 1.9234489 1.6165732

bias f4 [32]
00000000: 45c0 e83c 6a05 d73d 12e4 b1bd 71d2 d7bc
00000010: 6bca 1c3d 8c82 b13d a6bc fdbc 871c d53d
00000020: 3b01 9a3d 37c2 6ebe b4e8 933d b23f 37bd
00000030: dab6 263e c7ff 94bc de7a 113d d51f 30bd
00000040: 3d0d a0bd c9b7 d23c 5d74 c6bc 842d 36bd
00000050: fc28 e2bd 460c 8f3d c07e 29be 5ad0 a13c
00000060: 188f 503e 8dfb ba3c fa04 6c3e 7727 dbbd
00000070: fe8e c23c b4f2 333d a89f a83d 7188 643d
0.028411994 0.104990795 -0.08686079 -0.026345463 0.03827898 0.08667478 -0.030973744 0.10405832
0.07519766 -0.23316275 0.07222119 -0.04473848 0.1628069 -0.01818837 0.035517566 -0.042999107
-0.07815025 0.025722401 -0.024225408 -0.044477 -0.110429734 0.06984763 -0.16552258 0.01975267
0.20367086 0.022825027 0.23048773 -0.10700887 0.023749825 0.04393263 0.08233577 0.055794183

running_mean f4 [32]
00000000: ada1 5e3f 620c f43e 3114 353d eeea b63e
00000010: 3f7d c040 dd52 003f c471 f540 38c1 453f
00000020: 47c9 903e 8739 0c3f 0366 2d41 0665 933d
00000030: 569b bb40 9257 a43f 106f 0240 d6bb 723f
00000040: 5fa4 213f 7f05 3440 d2b6 3941 c0ba 8d40
00000050: da29 7240 e3ba a340 aab5 5f40 bd95 0341
00000060: a48d dc3f b283 d13f 5543 233f a8ce c73e
00000070: 42d1 7d40 01e6 a93f a64e 0e41 c460 1141
0.8696545 0.47665697 0.04420871 0.35726112 6.015289 0.5012644 7.6701374 0.77247953
0.28278562 0.5477528 10.837405 0.07197003 5.862712 1.2839224 2.0380287 0.94817865
0.63141435 2.8128355 11.607134 4.4290466 3.7838044 5.1165633 3.495463 8.224057
1.7230725 1.6368315 0.63774616 0.39024854 3.965897 1.3273317 8.894201 9.086124
